notebooks/paper2/datasets/brexit/w2v-tsne.npz (npz, 73604 bytes, 1 tensors)

arr_0 f4 [1834, 10]
000000 06 f0 7f bb 94 83 d1 bb e8 2e 23 b9 35 fa 85 bb
       -0.0039052977 -0.006393859 -0.00015562365 -0.004088665
000010 58 d9 9f b9 44 16 af 3a 10 c5 be ba fd 04 44 3b
       -0.00030488777 0.0013358076 -0.0014554579 0.00299102
000020 12 dd 37 bb 0d f9 da 3a 91 9d 63 bb b1 5e cb bb
       -0.0028055352 0.0016706303 -0.0034731368 -0.0062063565
000030 7e 17 59 b9 5d 22 77 bb 39 2f 88 ba c7 dd 05 3a
       -0.00020703484 -0.003770969 -0.001039005 0.0005106595
000040 78 f4 ef ba f8 48 33 3b 44 f0 30 bb e4 79 99 3a
       -0.001830711 0.0027356725 -0.0026998678 0.00117093
000050 06 89 80 bb c4 d1 cc bb 12 a8 94 39 7a b6 84 bb
       -0.0039225845 -0.006250592 0.00028353982 -0.004050073
000060 0c 39 c2 b9 ca 5e a4 3a 22 90 dc ba 68 03 43 3b
       -0.00037045067 0.0012540456 -0.0016827623 0.002975667
000070 fe 01 42 bb 56 c9 b1 3a 3d 70 89 bb 18 65 ce bb
       -0.0029603238 0.0013564031 -0.004194288 -0.0062986724
000080 23 60 1f b9 28 14 83 bb 31 17 b8 b9 ad 60 a8 3a
       -0.00015199235 -0.0040002055 -0.00035112494 0.0012846194
000090 ea 17 f0 ba 46 c0 42 3b 89 46 25 bb 51 b1 b9 3a
       -0.0018317674 0.0029716655 -0.0025219044 0.0014167224
0000a0 c9 18 8a bb 16 7a cd bb 15 f0 87 b9 32 51 7c bb
       -0.0042143804 -0.0062706573 -0.00025928082 -0.0038500545
0000b0 88 1f d7 b9 64 0e af 3a 98 a6 df ba 51 4c 44 3b
       -0.00041031488 0.0013355729 -0.0017063199 0.0029952715
0000c0 a0 9f 25 bb 5f 16 b3 3a 77 7c 87 bb 8e e5 cd bb
       -0.0025272146 0.0013663283 -0.0041347104 -0.0062834686
0000d0 c1 f4 8b b9 03 6e 79 bb f5 3e 03 ba 2a bb a2 3a
       -0.00026694502 -0.0038059957 -0.0005006635 0.0012415398
0000e0 1b 0d e9 ba 5a ec 45 3b 17 14 29 bb 88 29 c2 3a
       -0.0017780395 0.003020069 -0.0025799328 0.0014813403
0000f0 db dd 82 bb 98 64 ce bb 30 eb 11 37 65 ba 64 bb
       -0.0039937324 -0.006298613 8.697432e-06 -0.003490114
000100 ca cd 02 ba 86 21 85 3a 3d 75 d2 ba 39 d3 42 3b
       -0.00049897714 0.0010157085 -0.0016056668 0.002972795
000110 00 2f 27 bb a7 5f a7 3a a4 06 21 3f 48 7b a6 3e
       -0.0025510192 0.0012769595 0.6290076 0.3251593
000120 1e 42 33 41 91 a5 d7 c1 6c 17 e9 41 e1 d3 e8 40
       11.203642 -26.955843 29.136436 7.275864
000130 e7 b1 62 c1 77 46 e5 bd 66 3e 20 c2 f0 d0 f1 be
       -14.168433 -0.11195081 -40.060936 -0.4722972
000140 c7 ca 88 bb 49 3f ce bb 8f 7b be b9 e5 f2 78 bb
       -0.0041745636 -0.0062941653 -0.00036331682 -0.0037986573
000150 ee c7 b3 b9 24 37 a7 3a 88 13 ea ba 4f 7a 41 3b
       -0.000342905 0.0012757522 -0.0017858604 0.0029522364
000160 3a d5 1e bb e2 92 b6 3a ff 93 83 bb b3 00 d1 bb
       -0.002423598 0.0013929273 -0.0040154452 -0.006378257
000170 b4 35 a9 b9 1c 02 79 bb cf af 05 ba da f1 a5 3a
       -0.00032274204 -0.0037995642 -0.0005099745 0.0012660578
000180 04 29 c7 ba 46 e9 4e 3b 93 35 23 bb 4d 13 bd 3a
       -0.0015194719 0.0031572147 -0.002490376 0.0014425308
000190 b9 2f 83 bb 1b a8 c8 bb dd 00 a1 b9 37 1c 81 bb
       -0.0040034917 -0.0061235554 -0.00030708956 -0.003940131
0001a0 a5 f5 87 b9 50 89 b1 3a 9a 73 da ba 84 1a 48 3b
       -0.00025932226 0.0013544951 -0.0016666532 0.0030533383
0001b0 bc 0a 26 bb 9a 5b cd 3a 22 ca 86 bb 64 98 cd bb
       -0.0025335988 0.0015667558 -0.0041134516 -0.00627427
0001c0 88 1f e7 37 34 67 6d bb 87 51 4f b9 aa 0c 97 3a
       2.7552029e-05 -0.0036224844 -0.0001977143 0.001152416
0001d0 c8 1e 07 bb f4 eb 48 3b b3 c3 32 bb 37 55 ae 3a
       -0.0020617712 0.0030658217 -0.002727729 0.0013300542
0001e0 5d 06 84 bb cc 95 cd bb 95 9b b7 b9 ba c2 7a bb
       -0.004029079 -0.0062739607 -0.00035020398 -0.0038263039
0001f0 e4 23 a4 b9 b3 96 a4 3a 61 84 bf ba 84 55 46 3b
       -0.00031307258 0.0012557119 -0.0014611596 0.0030263374
000200 e2 ee 24 bb bd 58 be 3a 54 6e 85 bb 1c 15 cd bb
       -0.00251668 0.0014522296 -0.00407199 -0.00625862
000210 10 f0 ee b7 a4 65 7d bb 26 b7 17 ba 06 44 c4 3a
       -2.8483599e-05 -0.003866532 -0.0005787484 0.0014973886
000220 06 ec e9 ba 52 88 42 3b 97 be 27 bb bc b5 b9 3a
       -0.001784683 0.0029683304 -0.0025595778 0.0014168541
000230 f9 c3 8e bb 19 1e ce bb dd 23 03 ba 0d 1e 72 bb
       -0.004356858 -0.006290209 -0.00050025975 -0.0036944181
000240 2c 2c 3b ba 2b 1b 87 3a 23 f3 d7 ba 01 b8 4a 3b
       -0.0007140066 0.0010307779 -0.0016475659 0.0030932429
000250 e2 ee 31 bb 76 8d b9 3a d6 9c 5d bb dc 27 d5 bb
       -0.0027150442 0.0014156539 -0.0033815405 -0.0065049957
000260 05 83 8d b9 82 21 7f bb fb 21 06 ba 23 bd 63 3a
       -0.00026991233 -0.0038929884 -0.0005116758 0.00086875464
000270 64 52 02 bb 6c e9 51 3b f8 01 2f bb 5b 0a b5 3a
       -0.0019885534 0.003203 -0.0026704054 0.001381229
000280 3e b3 8c bb f3 89 d4 bb 33 73 a1 b9 ce b6 70 bb
       -0.0042938283 -0.0064861714 -0.00030794143 -0.0036730054
000290 40 46 f7 b9 d9 4a 27 3a 6a fe e0 ba 18 fd 5f 3b
       -0.00047163852 0.00063816976 -0.0017165665 0.0034177955
0002a0 af 14 36 bb a6 93 b8 3a cd 4a 80 bb 19 47 d1 bb
       -0.0027783324 0.0014082089 -0.003915167 -0.0063866493
0002b0 fe b6 3a ba 06 32 80 bb 2a 9d 1a b9 32 42 af 3a
       -0.0007122605 -0.0039122133 -0.00014745133 0.0013371168
0002c0 89 bf fc ba 85 47 41 3b f1 ce 18 bb c0 56 b0 3a
       -0.0019283156 0.0029492092 -0.0023316706 0.0013453588
0002d0 69 88 88 bb eb ce cc bb 5a 83 70 b9 be 94 7d bb
       -0.004166652 -0.0062502525 -0.00022937116 -0.0038693394
0002e0 ad 55 50 b9 6c fc 7e 3a e8 81 cb ba d8 c9 4b 3b
       -0.00019868342 0.0009726945 -0.0015526386 0.003109565
0002f0 85 b4 22 bb 28 f9 af 3a 03 58 87 bb 98 58 cb bb
       -0.0024826836 0.0013425695 -0.004130365 -0.0062056296
000300 1b 26 a6 b9 aa c6 81 bb c3 9c c8 b9 f1 0e 9b 3a
       -0.00031690378 -0.00396045 -0.0003826377 0.0011830014
000310 a4 e1 d7 ba 69 7a 41 3b 3e 08 28 bb b8 97 b8 3a
       -0.0016470444 0.0029522425 -0.0025639678 0.0014083302
000320 67 d5 87 bb ab 6c cd bb 70 e9 ca b8 87 0d 80 bb
       -0.0041453126 -0.0062690577 -9.675592e-05 -0.0039078626
000330 ef 3b cc b9 6a ee a9 3a 17 dc df ba f5 93 41 3b
       -0.00038954566 0.001296473 -0.0017079142 0.0029537652
000340 4e 60 28 bb a8 b6 ba 3a 93 06 88 bb 6f 96 cb bb
       -0.0025692168 0.001424511 -0.0041511743 -0.0062130014
000350 aa 9e 95 b9 c5 25 7c bb 2e 55 c3 b9 05 17 a1 3a
       -0.0002853771 -0.003847466 -0.00037256762 0.0012290186
000360 19 56 e8 ba 92 0e 48 3b f8 40 28 bb 3b dc b3 3a
       -0.0017725854 0.0030526263 -0.002567349 0.001372225
000370 23 4b 79 bb ab 50 cf bb 40 69 67 b9 26 ca 6d bb
       -0.003803917 -0.006326755 -0.00022069085 -0.003628382
000380 01 0e 45 39 8c 98 a4 3a 3c e7 f7 ba 38 46 46 3b
       0.00018792601 0.001255767 -0.0018913518 0.0030254256
000390 08 06 26 bb 92 85 d0 3a 91 ed 8c bb 9b fe d0 bb
       -0.0025333185 0.0015908948 -0.004300781 -0.0063780076
0003a0 b0 34 d4 b9 d2 43 76 bb cf 87 df b9 7a 77 7c 3a
       -0.00040475046 -0.0037577045 -0.0004263506 0.00096308405
0003b0 53 9a dc ba 3d 52 50 3b ba 7b 29 bb 64 16 b5 3a
       -0.001683066 0.00317873 -0.00258611 0.0013815877
0003c0 cc 7b 85 bb 7c ae cd bb 0a 8f c4 b9 ac 79 83 bb
       -0.0040735956 -0.0062769037 -0.00037490606 -0.004012307
0003d0 77 29 cf b9 54 76 ad 3a 2f 71 e1 ba da cf 46 3b
       -0.0003951301 0.0013234117 -0.0017199869 0.0030336292
0003e0 41 5e 24 bb eb 15 ba 3a 06 e0 88 bb 2b 7c cd bb
       -0.0025080594 0.0014197206 -0.0041770963 -0.0062709055
0003f0 49 06 83 b9 f0 8c 73 bb 0f a7 b9 b9 97 0b 95 3a
       -0.0002499095 -0.0037162863 -0.00035410418 0.0011371252
